{"class_name": "Sequential", "config": [{"class_name": "Conv1D", "config": {"name": "conv1d_1", "trainable": true, "batch_input_shape": [null, 1, 192], "dtype": "float32", "filters": 128, "kernel_size": [2], "strides": [2], "padding": "same", "dilation_rate": [1], "activation": "selu", "use_bias": true, "kernel_initializer": {"class_name": "VarianceScaling", "config": {"scale": 1.0, "mode": "fan_avg", "distribution": "uniform", "seed": null}}, "bias_initializer": {"class_name": "Zeros", "config": {}}, "kernel_regularizer": null, "bias_regularizer": null, "activity_regularizer": null, "kernel_constraint": null, "bias_constraint": null}}, {"class_name": "MaxPooling1D", "config": {"name": "max_pooling1d_1", "trainable": true, "strides": [2], "pool_size": [2], "padding": "same"}}, {"class_name": "Dropout", "config": {"name": "dropout_1", "trainable": true, "rate": 0.1, "noise_shape": null, "seed": null}}, {"class_name": "Conv1D", "config": {"name": "conv1d_2", "trainable": true, "filters": 256, "kernel_size": [2], "strides": [2], "padding": "same", "dilation_rate": [1], "activation": "selu", "use_bias": true, "kernel_initializer": {"class_name": "VarianceScaling", "config": {"scale": 1.0, "mode": "fan_avg", "distribution": "uniform", "seed": null}}, "bias_initializer": {"class_name": "Zeros", "config": {}}, "kernel_regularizer": null, "bias_regularizer": null, "activity_regularizer": null, "kernel_constraint": null, "bias_constraint": null}}, {"class_name": "MaxPooling1D", "config": {"name": "max_pooling1d_2", "trainable": true, "strides": [2], "pool_size": [2], "padding": "same"}}, {"class_name": "Dropout", "config": {"name": "dropout_2", "trainable": true, "rate": 0.1, "noise_shape": null, "seed": null}}, {"class_name": "Conv1D", "config": {"name": "conv1d_3", "trainable": true, "filters": 256, "kernel_size": [2], "strides": [2], "padding": "same", "dilation_rate": [1], "activation": "selu", "use_bias": true, "kernel_initializer": {"class_name": "VarianceScaling", "config": {"scale": 1.0, "mode": "fan_avg", "distribution": "uniform", "seed": null}}, "bias_initializer": {"class_name": "Zeros", "config": {}}, "kernel_regularizer": null, "bias_regularizer": null, "activity_regularizer": null, "kernel_constraint": null, "bias_constraint": null}}, {"class_name": "Conv1D", "config": {"name": "conv1d_4", "trainable": true, "filters": 512, "kernel_size": [2], "strides": [2], "padding": "same", "dilation_rate": [1], "activation": "selu", "use_bias": true, "kernel_initializer": {"class_name": "VarianceScaling", "config": {"scale": 1.0, "mode": "fan_avg", "distribution": "uniform", "seed": null}}, "bias_initializer": {"class_name": "Zeros", "config": {}}, "kernel_regularizer": null, "bias_regularizer": null, "activity_regularizer": null, "kernel_constraint": null, "bias_constraint": null}}, {"class_name": "MaxPooling1D", "config": {"name": "max_pooling1d_3", "trainable": true, "strides": [2], "pool_size": [2], "padding": "same"}}, {"class_name": "Conv1D", "config": {"name": "conv1d_5", "trainable": true, "filters": 512, "kernel_size": [2], "strides": [2], "padding": "same", "dilation_rate": [1], "activation": "selu", "use_bias": true, "kernel_initializer": {"class_name": "VarianceScaling", "config": {"scale": 1.0, "mode": "fan_avg", "distribution": "uniform", "seed": null}}, "bias_initializer": {"class_name": "Zeros", "config": {}}, "kernel_regularizer": null, "bias_regularizer": null, "activity_regularizer": null, "kernel_constraint": null, "bias_constraint": null}}, {"class_name": "MaxPooling1D", "config": {"name": "max_pooling1d_4", "trainable": true, "strides": [2], "pool_size": [2], "padding": "same"}}, {"class_name": "Dropout", "config": {"name": "dropout_3", "trainable": true, "rate": 0.1, "noise_shape": null, "seed": null}}, {"class_name": "Conv1D", "config": {"name": "conv1d_6", "trainable": true, "filters": 512, "kernel_size": [2], "strides": [2], "padding": "same", "dilation_rate": [1], "activation": "selu", "use_bias": true, "kernel_initializer": {"class_name": "VarianceScaling", "config": {"scale": 1.0, "mode": "fan_avg", "distribution": "uniform", "seed": null}}, "bias_initializer": {"class_name": "Zeros", "config": {}}, "kernel_regularizer": null, "bias_regularizer": null, "activity_regularizer": null, "kernel_constraint": null, "bias_constraint": null}}, {"class_name": "MaxPooling1D", "config": {"name": "max_pooling1d_5", "trainable": true, "strides": [2], "pool_size": [2], "padding": "same"}}, {"class_name": "Conv1D", "config": {"name": "conv1d_7", "trainable": true, "filters": 256, "kernel_size": [2], "strides": [2], "padding": "same", "dilation_rate": [1], "activation": "selu", "use_bias": true, "kernel_initializer": {"class_name": "VarianceScaling", "config": {"scale": 1.0, "mode": "fan_avg", "distribution": "uniform", "seed": null}}, "bias_initializer": {"class_name": "Zeros", "config": {}}, "kernel_regularizer": null, "bias_regularizer": null, "activity_regularizer": null, "kernel_constraint": null, "bias_constraint": null}}, {"class_name": "MaxPooling1D", "config": {"name": "max_pooling1d_6", "trainable": true, "strides": [2], "pool_size": [2], "padding": "same"}}, {"class_name": "Conv1D", "config": {"name": "conv1d_8", "trainable": true, "filters": 256, "kernel_size": [2], "strides": [2], "padding": "same", "dilation_rate": [1], "activation": "selu", "use_bias": true, "kernel_initializer": {"class_name": "VarianceScaling", "config": {"scale": 1.0, "mode": "fan_avg", "distribution": "uniform", "seed": null}}, "bias_initializer": {"class_name": "Zeros", "config": {}}, "kernel_regularizer": null, "bias_regularizer": null, "activity_regularizer": null, "kernel_constraint": null, "bias_constraint": null}}, {"class_name": "MaxPooling1D", "config": {"name": "max_pooling1d_7", "trainable": true, "strides": [2], "pool_size": [2], "padding": "same"}}, {"class_name": "Dropout", "config": {"name": "dropout_4", "trainable": true, "rate": 0.1, "noise_shape": null, "seed": null}}, {"class_name": "Conv1D", "config": {"name": "conv1d_9", "trainable": true, "filters": 256, "kernel_size": [2], "strides": [2], "padding": "same", "dilation_rate": [1], "activation": "selu", "use_bias": true, "kernel_initializer": {"class_name": "VarianceScaling", "config": {"scale": 1.0, "mode": "fan_avg", "distribution": "uniform", "seed": null}}, "bias_initializer": {"class_name": "Zeros", "config": {}}, "kernel_regularizer": null, "bias_regularizer": null, "activity_regularizer": null, "kernel_constraint": null, "bias_constraint": null}}, {"class_name": "MaxPooling1D", "config": {"name": "max_pooling1d_8", "trainable": true, "strides": [2], "pool_size": [2], "padding": "same"}}, {"class_name": "Flatten", "config": {"name": "flatten_1", "trainable": true}}, {"class_name": "Dense", "config": {"name": "dense_1", "trainable": true, "units": 5, "activation": "softmax", "use_bias": true, "kernel_initializer": {"class_name": "VarianceScaling", "config": {"scale": 1.0, "mode": "fan_avg", "distribution": "uniform", "seed": null}}, "bias_initializer": {"class_name": "Zeros", "config": {}}, "kernel_regularizer": null, "bias_regularizer": null, "activity_regularizer": null, "kernel_constraint": null, "bias_constraint": null}}], "keras_version": "2.1.5", "backend": "tensorflow"}